…
The sparsity of the dataset: 93.70575143257098%
Remain Fields: ['user_id', 'item_id', 'rating', 'timestamp', 'newc_degree', 'sem_aug', 'sem_aug_lengths']
Fri 13 Feb 2026 23:01:32 INFO  [Training]: train_batch_size = [256] train_neg_sample_args: [{'distribution': 'none', 'sample_num': 'none', 'alpha': 'none', 'dynamic': False, 'candidate_num': 0}]
Fri 13 Feb 2026 23:01:32 INFO  [Evaluation]: eval_batch_size = [512] eval_args: [{'split': {'LS': 'valid_and_test'}, 'order': 'TO', 'group_by': 'user', 'mode': {'valid': 'uni100', 'test': 'uni100'}}]
Fri 13 Feb 2026 23:01:32 INFO  SASRec_IDURL(
  (item_embedding): Embedding(1683, 64, padding_idx=0)
  (position_embedding): Embedding(32, 64)
  (trm_encoder): TransformerEncoder(
    (layer): ModuleList(
      (0-1): 2 x TransformerLayer(
        (multi_head_attention): MultiHeadAttention(
          (query): Linear(in_features=64, out_features=64, bias=True)
          (key): Linear(in_features=64, out_features=64, bias=True)
          (value): Linear(in_features=64, out_features=64, bias=True)
          (softmax): Softmax(dim=-1)
          (attn_dropout): Dropout(p=0.2, inplace=False)
          (dense): Linear(in_features=64, out_features=64, bias=True)
          (LayerNorm): LayerNorm((64,), eps=1e-12, elementwise_affine=True)
          (out_dropout): Dropout(p=0.2, inplace=False)
        )
        (feed_forward): FeedForward(
          (dense_1): Linear(in_features=64, out_features=256, bias=True)
          (dense_2): Linear(in_features=256, out_features=64, bias=True)
          (LayerNorm): LayerNorm((64,), eps=1e-12, elementwise_affine=True)
          (dropout): Dropout(p=0.2, inplace=False)
        )
      )
    )
  )
  (layer_norm): LayerNorm((64,), eps=1e-12, elementwise_affine=True)
  (dropout): Dropout(p=0.2, inplace=False)
  (loss_fct): NLLLoss()
  (project_arr): ModuleList(
    (0-4): 5 x Linear(in_features=64, out_features=64, bias=True)
  )
  (after_proj_ln_arr): ModuleList(
    (0-4): 5 x LayerNorm((64,), eps=1e-12, elementwise_affine=True)
  )
  (repr_dropout): Dropout(p=0.2, inplace=False)
  (new_repr_ln_arr): ModuleList(
    (0-4): 5 x LayerNorm((64,), eps=1e-12, elementwise_affine=True)
  )
  (idra_ln): LayerNorm((64,), eps=1e-12, elementwise_affine=True)
  (disen_loss_fct): CrossEntropyLoss()
  (cl_loss_fct): CrossEntropyLoss()
)
Trainable parameters: 232064
Fri 13 Feb 2026 23:01:33 INFO  FLOPs: 3182528.0
