…
The sparsity of the dataset: 93.70575143257098%
Remain Fields: ['user_id', 'item_id', 'rating', 'timestamp', 'newc_degree', 'sem_aug', 'sem_aug_lengths']
Fri 13 Feb 2026 23:12:00 INFO  [Training]: train_batch_size = [256] train_neg_sample_args: [{'distribution': 'none', 'sample_num': 'none', 'alpha': 'none', 'dynamic': False, 'candidate_num': 0}]
Fri 13 Feb 2026 23:12:00 INFO  [Evaluation]: eval_batch_size = [512] eval_args: [{'split': {'LS': 'valid_and_test'}, 'order': 'TO', 'group_by': 'user', 'mode': {'valid': 'uni100', 'test': 'uni100'}}]
Fri 13 Feb 2026 23:12:00 INFO  SASRec_IDURL(
  (item_embedding): Embedding(1683, 64, padding_idx=0)
  (position_embedding): Embedding(32, 64)
  (trm_encoder): TransformerEncoder(
    (layer): ModuleList(
      (0-1): 2 x TransformerLayer(
        (multi_head_attention): MultiHeadAttention(
          (query): Linear(in_features=64, out_features=64, bias=True)
          (key): Linear(in_features=64, out_features=64, bias=True)
          (value): Linear(in_features=64, out_features=64, bias=True)
          (softmax): Softmax(dim=-1)
          (attn_dropout): Dropout(p=0.2, inplace=False)
          (dense): Linear(in_features=64, out_features=64, bias=True)
          (LayerNorm): LayerNorm((64,), eps=1e-12, elementwise_affine=True)
          (out_dropout): Dropout(p=0.2, inplace=False)
        )
        (feed_forward): FeedForward(
          (dense_1): Linear(in_features=64, out_features=256, bias=True)
          (dense_2): Linear(in_features=256, out_features=64, bias=True)
          (LayerNorm): LayerNorm((64,), eps=1e-12, elementwise_affine=True)
          (dropout): Dropout(p=0.2, inplace=False)
        )
      )
    )
  )
  (layer_norm): LayerNorm((64,), eps=1e-12, elementwise_affine=True)
  (dropout): Dropout(p=0.2, inplace=False)
  (loss_fct): NLLLoss()
  (project_arr): ModuleList(
    (0-4): 5 x Linear(in_features=64, out_features=64, bias=True)
  )
  (after_proj_ln_arr): ModuleList(
    (0-4): 5 x LayerNorm((64,), eps=1e-12, elementwise_affine=True)
  )
  (repr_dropout): Dropout(p=0.2, inplace=False)
  (new_repr_ln_arr): ModuleList(
    (0-4): 5 x LayerNorm((64,), eps=1e-12, elementwise_affine=True)
  )
  (idra_ln): LayerNorm((64,), eps=1e-12, elementwise_affine=True)
  (disen_loss_fct): CrossEntropyLoss()
  (cl_loss_fct): CrossEntropyLoss()
)
Trainable parameters: 232064
Fri 13 Feb 2026 23:12:01 INFO  FLOPs: 3182528.0
Fri 13 Feb 2026 23:13:56 INFO  epoch 0 training [time: 113.31s, train loss: 4018.6895]
Fri 13 Feb 2026 23:13:58 INFO  epoch 0 evaluating [time: 2.38s, valid_score: 0.133400]
Fri 13 Feb 2026 23:13:58 INFO  valid result: 
…
The sparsity of the dataset: 99.87038081155896%
Remain Fields: ['user_id', 'item_id', 'rating', 'timestamp', 'newc_degree', 'sem_aug', 'sem_aug_lengths']
Sat 14 Feb 2026 02:52:24 INFO  [Training]: train_batch_size = [256] train_neg_sample_args: [{'distribution': 'none', 'sample_num': 'none', 'alpha': 'none', 'dynamic': False, 'candidate_num': 0}]
Sat 14 Feb 2026 02:52:24 INFO  [Evaluation]: eval_batch_size = [512] eval_args: [{'split': {'LS': 'valid_and_test'}, 'order': 'TO', 'group_by': 'user', 'mode': {'valid': 'uni100', 'test': 'uni100'}}]
Sat 14 Feb 2026 02:52:24 INFO  SASRec_IDURL(
  (item_embedding): Embedding(11924, 64, padding_idx=0)
  (position_embedding): Embedding(32, 64)
  (trm_encoder): TransformerEncoder(
    (layer): ModuleList(
      (0-1): 2 x TransformerLayer(
        (multi_head_attention): MultiHeadAttention(
          (query): Linear(in_features=64, out_features=64, bias=True)
          (key): Linear(in_features=64, out_features=64, bias=True)
          (value): Linear(in_features=64, out_features=64, bias=True)
          (softmax): Softmax(dim=-1)
          (attn_dropout): Dropout(p=0.2, inplace=False)
          (dense): Linear(in_features=64, out_features=64, bias=True)
          (LayerNorm): LayerNorm((64,), eps=1e-12, elementwise_affine=True)
          (out_dropout): Dropout(p=0.2, inplace=False)
        )
        (feed_forward): FeedForward(
          (dense_1): Linear(in_features=64, out_features=256, bias=True)
          (dense_2): Linear(in_features=256, out_features=64, bias=True)
          (LayerNorm): LayerNorm((64,), eps=1e-12, elementwise_affine=True)
          (dropout): Dropout(p=0.2, inplace=False)
        )
      )
    )
  )
  (layer_norm): LayerNorm((64,), eps=1e-12, elementwise_affine=True)
  (dropout): Dropout(p=0.2, inplace=False)
  (loss_fct): NLLLoss()
  (project_arr): ModuleList(
    (0-4): 5 x Linear(in_features=64, out_features=64, bias=True)
  )
  (after_proj_ln_arr): ModuleList(
    (0-4): 5 x LayerNorm((64,), eps=1e-12, elementwise_affine=True)
  )
  (repr_dropout): Dropout(p=0.2, inplace=False)
  (new_repr_ln_arr): ModuleList(
    (0-4): 5 x LayerNorm((64,), eps=1e-12, elementwise_affine=True)
  )
  (idra_ln): LayerNorm((64,), eps=1e-12, elementwise_affine=True)
  (disen_loss_fct): CrossEntropyLoss()
  (cl_loss_fct): CrossEntropyLoss()
)
Trainable parameters: 887488
Sat 14 Feb 2026 02:52:24 INFO  FLOPs: 3182528.0
Sat 14 Feb 2026 02:54:02 INFO  epoch 0 training [time: 97.89s, train loss: 4462.3629]
Sat 14 Feb 2026 02:54:18 INFO  epoch 0 evaluating [time: 15.64s, valid_score: 0.131000]
Sat 14 Feb 2026 02:54:18 INFO  valid result: 
…
The sparsity of the dataset: 99.80198988231011%
Remain Fields: ['user_id', 'item_id', 'rating', 'timestamp', 'newc_degree', 'sem_aug', 'sem_aug_lengths']
Sat 14 Feb 2026 05:45:19 INFO  [Training]: train_batch_size = [256] train_neg_sample_args: [{'distribution': 'none', 'sample_num': 'none', 'alpha': 'none', 'dynamic': False, 'candidate_num': 0}]
Sat 14 Feb 2026 05:45:19 INFO  [Evaluation]: eval_batch_size = [512] eval_args: [{'split': {'LS': 'valid_and_test'}, 'order': 'TO', 'group_by': 'user', 'mode': {'valid': 'uni100', 'test': 'uni100'}}]
Sat 14 Feb 2026 05:45:19 INFO  SASRec_IDURL(
  (item_embedding): Embedding(54722, 64, padding_idx=0)
  (position_embedding): Embedding(32, 64)
  (trm_encoder): TransformerEncoder(
    (layer): ModuleList(
      (0-1): 2 x TransformerLayer(
        (multi_head_attention): MultiHeadAttention(
          (query): Linear(in_features=64, out_features=64, bias=True)
          (key): Linear(in_features=64, out_features=64, bias=True)
          (value): Linear(in_features=64, out_features=64, bias=True)
          (softmax): Softmax(dim=-1)
          (attn_dropout): Dropout(p=0.2, inplace=False)
          (dense): Linear(in_features=64, out_features=64, bias=True)
          (LayerNorm): LayerNorm((64,), eps=1e-12, elementwise_affine=True)
          (out_dropout): Dropout(p=0.2, inplace=False)
        )
        (feed_forward): FeedForward(
          (dense_1): Linear(in_features=64, out_features=256, bias=True)
          (dense_2): Linear(in_features=256, out_features=64, bias=True)
          (LayerNorm): LayerNorm((64,), eps=1e-12, elementwise_affine=True)
          (dropout): Dropout(p=0.2, inplace=False)
        )
      )
    )
  )
  (layer_norm): LayerNorm((64,), eps=1e-12, elementwise_affine=True)
  (dropout): Dropout(p=0.2, inplace=False)
  (loss_fct): NLLLoss()
  (project_arr): ModuleList(
    (0-4): 5 x Linear(in_features=64, out_features=64, bias=True)
  )
  (after_proj_ln_arr): ModuleList(
    (0-4): 5 x LayerNorm((64,), eps=1e-12, elementwise_affine=True)
  )
  (repr_dropout): Dropout(p=0.2, inplace=False)
  (new_repr_ln_arr): ModuleList(
    (0-4): 5 x LayerNorm((64,), eps=1e-12, elementwise_affine=True)
  )
  (idra_ln): LayerNorm((64,), eps=1e-12, elementwise_affine=True)
  (disen_loss_fct): CrossEntropyLoss()
  (cl_loss_fct): CrossEntropyLoss()
)
Trainable parameters: 3626560
Sat 14 Feb 2026 05:45:19 INFO  FLOPs: 3182528.0
Sat 14 Feb 2026 05:48:39 INFO  epoch 0 training [time: 199.98s, train loss: 8709.9397]
Sat 14 Feb 2026 05:48:42 INFO  epoch 0 evaluating [time: 3.45s, valid_score: 0.141100]
Sat 14 Feb 2026 05:48:42 INFO  valid result: 
…
The sparsity of the dataset: 93.70575143257098%
Remain Fields: ['user_id', 'item_id', 'rating', 'timestamp', 'age', 'gender', 'occupation', 'zip_code', 'movie_title', 'release_year', 'class']
Sat 14 Feb 2026 08:57:01 INFO  [Training]: train_batch_size = [256] train_neg_sample_args: [{'distribution': 'none', 'sample_num': 'none', 'alpha': 'none', 'dynamic': False, 'candidate_num': 0}]
Sat 14 Feb 2026 08:57:01 INFO  [Evaluation]: eval_batch_size = [512] eval_args: [{'split': {'LS': 'valid_and_test'}, 'order': 'TO', 'group_by': 'user', 'mode': {'valid': 'uni100', 'test': 'uni100'}}]
Sat 14 Feb 2026 08:57:01 INFO  BASRec(
  (item_embedding): Embedding(1683, 64, padding_idx=0)
  (position_embedding): Embedding(32, 64)
  (trm_encoder): TransformerEncoder(
    (layer): ModuleList(
      (0-1): 2 x TransformerLayer(
        (multi_head_attention): MultiHeadAttention(
          (query): Linear(in_features=64, out_features=64, bias=True)
          (key): Linear(in_features=64, out_features=64, bias=True)
          (value): Linear(in_features=64, out_features=64, bias=True)
          (softmax): Softmax(dim=-1)
          (attn_dropout): Dropout(p=0.2, inplace=False)
          (dense): Linear(in_features=64, out_features=64, bias=True)
          (LayerNorm): LayerNorm((64,), eps=1e-12, elementwise_affine=True)
          (out_dropout): Dropout(p=0.2, inplace=False)
        )
        (feed_forward): FeedForward(
          (dense_1): Linear(in_features=64, out_features=256, bias=True)
          (dense_2): Linear(in_features=256, out_features=64, bias=True)
          (LayerNorm): LayerNorm((64,), eps=1e-12, elementwise_affine=True)
          (dropout): Dropout(p=0.2, inplace=False)
        )
      )
    )
  )
  (layer_norm): LayerNorm((64,), eps=1e-12, elementwise_affine=True)
  (dropout): Dropout(p=0.2, inplace=False)
)
Trainable parameters: 209856
Sat 14 Feb 2026 08:57:01 INFO  FLOPs: 3182528.0
Sat 14 Feb 2026 09:12:03 INFO  epoch 0 training [time: 901.79s, train loss: 484.3541]
Sat 14 Feb 2026 09:12:05 INFO  epoch 0 evaluating [time: 2.53s, valid_score: 0.294800]
Sat 14 Feb 2026 09:12:05 INFO  valid result: 
hit@10 : 0.6967    ndcg@10 : 0.3893    mrr@10 : 0.2948
…
Average actions of items: 9.075400486454752
The number of inters: 108206
The sparsity of the dataset: 99.87038081155896%
Remain Fields: ['user_id', 'item_id', 'rating', 'timestamp']
Sat 14 Feb 2026 20:32:22 INFO  [Training]: train_batch_size = [256] train_neg_sample_args: [{'distribution': 'none', 'sample_num': 'none', 'alpha': 'none', 'dynamic': False, 'candidate_num': 0}]
Sat 14 Feb 2026 20:32:22 INFO  [Evaluation]: eval_batch_size = [512] eval_args: [{'split': {'LS': 'valid_and_test'}, 'order': 'TO', 'group_by': 'user', 'mode': {'valid': 'uni100', 'test': 'uni100'}}]
Sat 14 Feb 2026 20:32:22 INFO  BASRec(
  (item_embedding): Embedding(11924, 64, padding_idx=0)
  (position_embedding): Embedding(32, 64)
  (trm_encoder): TransformerEncoder(
    (layer): ModuleList(
      (0-1): 2 x TransformerLayer(
        (multi_head_attention): MultiHeadAttention(
          (query): Linear(in_features=64, out_features=64, bias=True)
          (key): Linear(in_features=64, out_features=64, bias=True)
          (value): Linear(in_features=64, out_features=64, bias=True)
          (softmax): Softmax(dim=-1)
          (attn_dropout): Dropout(p=0.2, inplace=False)
          (dense): Linear(in_features=64, out_features=64, bias=True)
          (LayerNorm): LayerNorm((64,), eps=1e-12, elementwise_affine=True)
          (out_dropout): Dropout(p=0.2, inplace=False)
        )
        (feed_forward): FeedForward(
          (dense_1): Linear(in_features=64, out_features=256, bias=True)
          (dense_2): Linear(in_features=256, out_features=64, bias=True)
          (LayerNorm): LayerNorm((64,), eps=1e-12, elementwise_affine=True)
          (dropout): Dropout(p=0.2, inplace=False)
        )
      )
    )
  )
  (layer_norm): LayerNorm((64,), eps=1e-12, elementwise_affine=True)
  (dropout): Dropout(p=0.2, inplace=False)
)
Trainable parameters: 865280
Sat 14 Feb 2026 20:32:22 INFO  FLOPs: 3182528.0
Sat 14 Feb 2026 20:38:55 INFO  epoch 0 training [time: 393.57s, train loss: 459.8833]
Sat 14 Feb 2026 20:39:08 INFO  epoch 0 evaluating [time: 12.94s, valid_score: 0.194400]
Sat 14 Feb 2026 20:39:08 INFO  valid result: 
hit@10 : 0.4291    ndcg@10 : 0.2498    mrr@10 : 0.1944
…
