…
The sparsity of the dataset: 93.70575143257098%
Remain Fields: ['user_id', 'item_id', 'rating', 'timestamp', 'age', 'gender', 'occupation', 'zip_code', 'movie_title', 'release_year', 'class']
Thu 29 Jan 2026 10:28:36 INFO  [Training]: train_batch_size = [256] train_neg_sample_args: [{'distribution': 'uniform', 'sample_num': 1, 'alpha': 1.0, 'dynamic': False, 'candidate_num': 0}]
Thu 29 Jan 2026 10:28:36 INFO  [Evaluation]: eval_batch_size = [512] eval_args: [{'split': {'LS': 'valid_and_test'}, 'order': 'TO', 'group_by': 'user', 'mode': {'valid': 'uni100', 'test': 'uni100'}}]
Thu 29 Jan 2026 10:28:36 INFO  SMLPREC(
  (item_embedding): Embedding(1683, 128, padding_idx=0)
  (feature_embed_layer): FeatureSeqEmbLayer(
    (token_embedding_table): ModuleDict(
      (item): FMEmbedding(
        (embedding): Embedding(74, 128)
      )
    )
    (float_embedding_table): ModuleDict()
    (token_seq_embedding_table): ModuleDict(
      (item): ModuleList(
        (0): Embedding(20, 128)
      )
    )
    (float_seq_embedding_table): ModuleDict(
      (item): ModuleList()
    )
  )
  (layers): ModuleList(
    (0-3): 4 x SMLPBlock(
      (seq_mlp): MLPBranch(
        (fc1): Linear(in_features=32, out_features=32, bias=True)
        (fc2): Linear(in_features=32, out_features=32, bias=True)
        (act): GELU(approximate='none')
        (drop): Dropout(p=0.5, inplace=False)
      )
      (feat_mlp): MLPBranch(
        (fc1): Linear(in_features=3, out_features=3, bias=True)
        (fc2): Linear(in_features=3, out_features=3, bias=True)
        (act): GELU(approximate='none')
        (drop): Dropout(p=0.5, inplace=False)
      )
      (chan_mlp): MLPBranch(
        (fc1): Linear(in_features=128, out_features=128, bias=True)
        (fc2): Linear(in_features=128, out_features=128, bias=True)
        (act): GELU(approximate='none')
        (drop): Dropout(p=0.5, inplace=False)
      )
      (norm): LayerNorm((128,), eps=1e-05, elementwise_affine=True)
    )
  )
  (output_norm): LayerNorm((128,), eps=1e-12, elementwise_affine=True)
  (loss_fct): BPRLoss()
)
Trainable parameters: 369376
Thu 29 Jan 2026 10:28:36 INFO  FLOPs: 16155008.0
Thu 29 Jan 2026 10:29:30 INFO  epoch 0 training [time: 52.56s, train loss: 220.2333]
Thu 29 Jan 2026 10:29:36 INFO  epoch 0 evaluating [time: 5.66s, valid_score: 0.126900]
Thu 29 Jan 2026 10:29:36 INFO  valid result: 
hit@10 : 0.3775    ndcg@10 : 0.1847    mrr@10 : 0.1269
…
