…
The sparsity of the dataset: 93.70575143257098%
Remain Fields: ['user_id', 'item_id', 'rating', 'timestamp', 'age', 'gender', 'occupation', 'zip_code', 'movie_title', 'release_year', 'class']
Sun 25 Jan 2026 11:42:33 INFO  [Training]: train_batch_size = [256] train_neg_sample_args: [{'distribution': 'uniform', 'sample_num': 1, 'alpha': 1.0, 'dynamic': False, 'candidate_num': 0}]
Sun 25 Jan 2026 11:42:33 INFO  [Evaluation]: eval_batch_size = [512] eval_args: [{'split': {'LS': 'valid_and_test'}, 'order': 'TO', 'group_by': 'user', 'mode': {'valid': 'uni100', 'test': 'uni100'}}]
Sun 25 Jan 2026 11:42:33 INFO  SMLPREC(
  (item_embedding): Embedding(1683, 128, padding_idx=0)
  (feature_embed_layer): FeatureSeqEmbLayer(
    (token_embedding_table): ModuleDict(
      (item): FMEmbedding(
        (embedding): Embedding(74, 128)
      )
    )
    (float_embedding_table): ModuleDict()
    (token_seq_embedding_table): ModuleDict(
      (item): ModuleList(
        (0): Embedding(20, 128)
        (1): Embedding(2653, 128)
      )
    )
    (float_seq_embedding_table): ModuleDict(
      (item): ModuleList()
    )
  )
  (layers): ModuleList(
    (0): SMLP(
      (c): Sequential(
        (0): Linear(in_features=4, out_features=12, bias=False)
        (1): GELU(approximate='none')
        (2): Dropout(p=0.5, inplace=False)
        (3): Linear(in_features=12, out_features=4, bias=False)
        (4): Dropout(p=0.5, inplace=False)
      )
      (h): Sequential(
        (0): Linear(in_features=50, out_features=150, bias=False)
        (1): GELU(approximate='none')
        (2): Dropout(p=0.5, inplace=False)
        (3): Linear(in_features=150, out_features=50, bias=False)
        (4): Dropout(p=0.5, inplace=False)
      )
      (w): Sequential(
        (0): Linear(in_features=128, out_features=384, bias=False)
        (1): GELU(approximate='none')
        (2): Dropout(p=0.5, inplace=False)
        (3): Linear(in_features=384, out_features=128, bias=False)
        (4): Dropout(p=0.5, inplace=False)
      )
      (norm2): LayerNorm((128,), eps=1e-05, elementwise_affine=True)
    )
  )
  (LayerNorm): LayerNorm((128,), eps=1e-12, elementwise_affine=True)
  (loss_fct): BPRLoss()
)
Trainable parameters: 680952
Sun 25 Jan 2026 11:42:34 INFO  FLOPs: 112173184.0
Sun 25 Jan 2026 11:44:02 INFO  epoch 0 training [time: 86.87s, train loss: 255.8139]
Sun 25 Jan 2026 11:44:15 INFO  epoch 0 evaluating [time: 13.48s, valid_score: 0.115300]
Sun 25 Jan 2026 11:44:15 INFO  valid result: 
hit@10 : 0.3362    ndcg@10 : 0.1663    mrr@10 : 0.1153
…
