…
The sparsity of the dataset: 93.70575143257098%
Remain Fields: ['user_id', 'item_id', 'rating', 'timestamp', 'age', 'gender', 'occupation', 'zip_code', 'movie_title', 'release_year', 'class']
Mon 26 Jan 2026 12:28:19 INFO  [Training]: train_batch_size = [256] train_neg_sample_args: [{'distribution': 'uniform', 'sample_num': 1, 'alpha': 1.0, 'dynamic': False, 'candidate_num': 0}]
Mon 26 Jan 2026 12:28:19 INFO  [Evaluation]: eval_batch_size = [512] eval_args: [{'split': {'LS': 'valid_and_test'}, 'order': 'TO', 'group_by': 'user', 'mode': {'valid': 'uni100', 'test': 'uni100'}}]
Mon 26 Jan 2026 12:28:19 INFO  LICRec(
  (item_emb): Embedding(1683, 64, padding_idx=0)
  (gsu): CandidateAwareClock(
    (item_emb): Embedding(1683, 64, padding_idx=0)
    (dt_emb): Embedding(16, 64, padding_idx=0)
    (clock_proj): Linear(in_features=2, out_features=64, bias=True)
    (k_proj): Linear(in_features=64, out_features=64, bias=True)
    (v_proj): Linear(in_features=64, out_features=64, bias=True)
    (dropout): Dropout(p=0.1, inplace=False)
    (kv_dropout): Dropout(p=0.1, inplace=False)
    (time_mlp): Sequential(
      (0): Linear(in_features=4, out_features=16, bias=True)
      (1): ReLU()
      (2): Linear(in_features=16, out_features=1, bias=True)
    )
  )
  (esu): CandidateAwareClock(
    (item_emb): Embedding(1683, 64, padding_idx=0)
    (dt_emb): Embedding(16, 64, padding_idx=0)
    (clock_proj): Linear(in_features=2, out_features=64, bias=True)
    (k_proj): Linear(in_features=64, out_features=64, bias=True)
    (v_proj): Linear(in_features=64, out_features=64, bias=True)
    (dropout): Dropout(p=0.1, inplace=False)
    (kv_dropout): Dropout(p=0.1, inplace=False)
    (time_mlp): Sequential(
      (0): Linear(in_features=4, out_features=16, bias=True)
      (1): ReLU()
      (2): Linear(in_features=16, out_features=1, bias=True)
    )
  )
  (fuse_mlp): Sequential(
    (0): Linear(in_features=192, out_features=64, bias=True)
    (1): ReLU()
    (2): Dropout(p=0.1, inplace=False)
    (3): Linear(in_features=64, out_features=1, bias=True)
  )
  (loss_fct): BPRLoss()
)
Trainable parameters: 139397.0
Mon 26 Jan 2026 12:28:20 INFO  FLOPs: 373056.0
Mon 26 Jan 2026 12:28:56 INFO  epoch 0 training [time: 34.78s, train loss: 752.6051]
Mon 26 Jan 2026 12:29:08 INFO  epoch 0 evaluating [time: 12.14s, valid_score: 0.038800]
Mon 26 Jan 2026 12:29:08 INFO  valid result: 
hit@10 : 0.1135    ndcg@10 : 0.056    mrr@10 : 0.0388
…
