…
The sparsity of the dataset: 93.70575143257098%
Remain Fields: ['user_id', 'item_id', 'rating', 'timestamp', 'age', 'gender', 'occupation', 'zip_code', 'movie_title', 'release_year', 'class']
Mon 26 Jan 2026 12:58:40 INFO  [Training]: train_batch_size = [256] train_neg_sample_args: [{'distribution': 'uniform', 'sample_num': 1, 'alpha': 1.0, 'dynamic': False, 'candidate_num': 0}]
Mon 26 Jan 2026 12:58:40 INFO  [Evaluation]: eval_batch_size = [512] eval_args: [{'split': {'LS': 'valid_and_test'}, 'order': 'TO', 'group_by': 'user', 'mode': {'valid': 'uni100', 'test': 'uni100'}}]
Mon 26 Jan 2026 12:58:40 INFO  LICRec(
  (item_emb): Embedding(1683, 128, padding_idx=0)
  (gsu): ClockGSU(
    (item_emb): Embedding(1683, 128, padding_idx=0)
    (k_proj): Linear(in_features=128, out_features=128, bias=True)
    (dropout): Dropout(p=0.1, inplace=False)
    (time_mlp): Sequential(
      (0): Linear(in_features=4, out_features=32, bias=True)
      (1): ReLU()
      (2): Linear(in_features=32, out_features=1, bias=True)
    )
  )
  (esu): ClockESU(
    (item_emb): Embedding(1683, 128, padding_idx=0)
    (q_proj): Linear(in_features=128, out_features=128, bias=True)
    (k_proj): Linear(in_features=128, out_features=128, bias=True)
    (v_proj): Linear(in_features=128, out_features=128, bias=True)
    (out_proj): Linear(in_features=128, out_features=128, bias=True)
    (dropout): Dropout(p=0.1, inplace=False)
    (time_mlp): Sequential(
      (0): Linear(in_features=4, out_features=32, bias=True)
      (1): ReLU()
      (2): Linear(in_features=32, out_features=1, bias=True)
    )
  )
  (fuse_mlp): Sequential(
    (0): Linear(in_features=384, out_features=128, bias=True)
    (1): ReLU()
    (2): Dropout(p=0.1, inplace=False)
    (3): Linear(in_features=128, out_features=1, bias=True)
  )
  (loss_fct): BPRLoss()
)
Trainable parameters: 347779
