…
Average actions of items: 14.055434417980543
The number of inters: 167597
The sparsity of the dataset: 99.92760389550713%
Remain Fields: ['user_id', 'item_id', 'rating', 'timestamp']
Wed 04 Mar 2026 08:45:34 INFO  [Training]: train_batch_size = [256] train_neg_sample_args: [{'distribution': 'none', 'sample_num': 'none', 'alpha': 'none', 'dynamic': False, 'candidate_num': 0}]
Wed 04 Mar 2026 08:45:34 INFO  [Evaluation]: eval_batch_size = [512] eval_args: [{'split': {'LS': 'valid_and_test'}, 'order': 'TO', 'group_by': 'user', 'mode': {'valid': 'full', 'test': 'full'}}]
Wed 04 Mar 2026 08:45:34 INFO  TimeWeaver(
  (item_embedding): Embedding(11925, 64, padding_idx=0)
  (time_aug): TimeAwareAugmentation(
    (pos_embedding): Embedding(32, 64)
    (time_embedding): Embedding(1000, 64)
    (layer_norm): LayerNorm((64,), eps=1e-05, elementwise_affine=True)
    (drop): Dropout(p=0.5, inplace=False)
  )
  (context_layers): ModuleList(
    (0-1): 2 x TCNNextBlock(
      (dw): DepthwiseConv1d(
        (conv): Conv1d(64, 64, kernel_size=(11,), stride=(1,), padding=(5,), groups=64)
        (bn): BatchNorm1d(64, eps=1e-05, momentum=0.1, affine=True, track_running_stats=True)
        (drop): Dropout(p=0.5, inplace=False)
      )
      (norm1): LayerNorm((64,), eps=1e-05, elementwise_affine=True)
      (conv_inter): ParallelConvInter(
        (conv1): Conv1d(64, 64, kernel_size=(1,), stride=(1,))
        (conv3): Conv1d(64, 64, kernel_size=(3,), stride=(1,), padding=(1,))
        (proj): Conv1d(64, 64, kernel_size=(1,), stride=(1,))
        (drop): Dropout(p=0.5, inplace=False)
      )
      (norm2): LayerNorm((64,), eps=1e-05, elementwise_affine=True)
      (ffn): Sequential(
        (0): Linear(in_features=64, out_features=256, bias=True)
        (1): GELU(approximate='none')
        (2): Dropout(p=0.5, inplace=False)
        (3): Linear(in_features=256, out_features=64, bias=True)
        (4): Dropout(p=0.5, inplace=False)
      )
      (norm3): LayerNorm((64,), eps=1e-05, elementwise_affine=True)
    )
  )
  (dynamic_layers): ModuleList(
    (0-1): 2 x EMAStream(
      (proj): Linear(in_features=64, out_features=64, bias=True)
    )
  )
  (weavers): ModuleList(
    (0-1): 2 x StreamWeaver(
      (proj): Linear(in_features=128, out_features=64, bias=True)
      (norm): LayerNorm((64,), eps=1e-05, elementwise_affine=True)
    )
  )
  (loss_fct): CrossEntropyLoss()
)
Trainable parameters: 964545.0
Wed 04 Mar 2026 08:45:35 INFO  FLOPs: 4298752.0
Wed 04 Mar 2026 08:46:13 INFO  epoch 0 training [time: 36.77s, train loss: 3840.3405]
Wed 04 Mar 2026 08:46:14 INFO  epoch 0 evaluating [time: 0.56s, valid_score: 0.013900]
Wed 04 Mar 2026 08:46:14 INFO  valid result: 
hit@10 : 0.0139    ndcg@10 : 0.0074    mrr@10 : 0.0054
…
Average actions of items: 14.055434417980543
The number of inters: 167597
The sparsity of the dataset: 99.92760389550713%
Remain Fields: ['user_id', 'item_id', 'rating', 'timestamp']
Wed 04 Mar 2026 09:32:06 INFO  [Training]: train_batch_size = [256] train_neg_sample_args: [{'distribution': 'uniform', 'sample_num': 1, 'alpha': 1.0, 'dynamic': False, 'candidate_num': 0}]
Wed 04 Mar 2026 09:32:06 INFO  [Evaluation]: eval_batch_size = [512] eval_args: [{'split': {'LS': 'valid_and_test'}, 'order': 'TO', 'group_by': 'user', 'mode': {'valid': 'full', 'test': 'full'}}]
Wed 04 Mar 2026 09:32:06 INFO  MLM4Rec(
  (item_embedding): Embedding(11925, 64, padding_idx=0)
  (dropout): Dropout(p=0.5, inplace=False)
  (global_encoder): GlobalEncoder(
    (layers): ModuleList(
      (0-1): 2 x ModuleList(
        (0): SequenceMixer(
          (norm): LayerNorm((64,), eps=1e-05, elementwise_affine=True)
          (fc1): Linear(in_features=32, out_features=32, bias=True)
          (fc2): Linear(in_features=32, out_features=32, bias=True)
          (act): GELU(approximate='none')
          (drop): Dropout(p=0.5, inplace=False)
        )
        (1): ChannelMixer(
          (norm): LayerNorm((64,), eps=1e-05, elementwise_affine=True)
          (fc1): Linear(in_features=64, out_features=64, bias=True)
          (fc2): Linear(in_features=64, out_features=64, bias=True)
          (act): GELU(approximate='none')
          (drop): Dropout(p=0.5, inplace=False)
        )
      )
    )
  )
  (local_encoder): LocalEncoder(
    (layers): ModuleList(
      (0-1): 2 x LocalEncoderBlock(
        (norm): LayerNorm((64,), eps=1e-05, elementwise_affine=True)
        (proj_in): Linear(in_features=64, out_features=128, bias=True)
        (proj_out): Linear(in_features=64, out_features=64, bias=True)
        (act): GELU(approximate='none')
        (drop): Dropout(p=0.5, inplace=False)
        (cle): MultiGranularityCLE(
          (norm): LayerNorm((64,), eps=1e-05, elementwise_affine=True)
          (convs): ModuleList(
            (0): Conv1d(64, 64, kernel_size=(3,), stride=(1,), padding=(1,), groups=64)
            (1): Conv1d(64, 64, kernel_size=(5,), stride=(1,), padding=(2,), groups=64)
            (2): Conv1d(64, 64, kernel_size=(7,), stride=(1,), padding=(3,), groups=64)
            (3): Conv1d(64, 64, kernel_size=(9,), stride=(1,), padding=(4,), groups=64)
          )
          (act): SiLU()
        )
      )
    )
  )
  (afl): AdaptiveFusion(
    (att_fc): Linear(in_features=64, out_features=1, bias=True)
    (wg): Linear(in_features=64, out_features=1, bias=True)
    (wl): Linear(in_features=64, out_features=1, bias=True)
  )
  (pred_fc1): Linear(in_features=64, out_features=64, bias=True)
  (pred_fc2): Linear(in_features=64, out_features=11925, bias=True)
  (pred_act): GELU(approximate='none')
  (loss_fct): BPRLoss()
)
Trainable parameters: 1593112
Wed 04 Mar 2026 09:32:06 INFO  FLOPs: 1710272.0
Wed 04 Mar 2026 09:32:53 INFO  epoch 0 training [time: 46.60s, train loss: 255.3575]
Wed 04 Mar 2026 09:32:53 INFO  epoch 0 evaluating [time: 0.46s, valid_score: 0.004000]
Wed 04 Mar 2026 09:32:53 INFO  valid result: 
…
Average actions of items: 14.055434417980543
The number of inters: 167597
The sparsity of the dataset: 99.92760389550713%
Remain Fields: ['user_id', 'item_id', 'rating', 'timestamp']
Wed 04 Mar 2026 11:13:09 INFO  [Training]: train_batch_size = [256] train_neg_sample_args: [{'distribution': 'none', 'sample_num': 'none', 'alpha': 'none', 'dynamic': False, 'candidate_num': 0}]
Wed 04 Mar 2026 11:13:09 INFO  [Evaluation]: eval_batch_size = [512] eval_args: [{'split': {'LS': 'valid_and_test'}, 'order': 'TO', 'group_by': 'user', 'mode': {'valid': 'full', 'test': 'full'}}]
Wed 04 Mar 2026 11:13:09 INFO  LRURec(
  (item_embedding): Embedding(11925, 64, padding_idx=0)
  (pos_embedding): Embedding(32, 64)
  (dropout): Dropout(p=0.5, inplace=False)
  (layer_norm): LayerNorm((64,), eps=1e-05, elementwise_affine=True)
  (layers): ModuleList(
    (0-1): 2 x LRUBlock(
      (dropout): Dropout(p=0.5, inplace=False)
      (norm1): LayerNorm((64,), eps=1e-05, elementwise_affine=True)
      (norm2): LayerNorm((64,), eps=1e-05, elementwise_affine=True)
      (ffn): Sequential(
        (0): Linear(in_features=64, out_features=256, bias=True)
        (1): GELU(approximate='none')
        (2): Dropout(p=0.5, inplace=False)
        (3): Linear(in_features=256, out_features=64, bias=True)
        (4): Dropout(p=0.5, inplace=False)
      )
    )
  )
  (loss_fct): CrossEntropyLoss()
)
Trainable parameters: 873408
Wed 04 Mar 2026 11:13:09 INFO  FLOPs: 2121728.0
Wed 04 Mar 2026 11:19:17 INFO  epoch 0 training [time: 367.54s, train loss: 3877.7102]
Wed 04 Mar 2026 11:19:18 INFO  epoch 0 evaluating [time: 0.95s, valid_score: 0.004700]
Wed 04 Mar 2026 11:19:18 INFO  valid result: 
…
