…
Average actions of items: 5.648298059104652
The number of inters: 57912
The sparsity of the dataset: 99.7421119990595%
Remain Fields: ['user_id', 'item_id', 'rating', 'timestamp']
Sat 21 Feb 2026 15:43:59 INFO  [Training]: train_batch_size = [256] train_neg_sample_args: [{'distribution': 'none', 'sample_num': 'none', 'alpha': 'none', 'dynamic': False, 'candidate_num': 0}]
Sat 21 Feb 2026 15:43:59 INFO  [Evaluation]: eval_batch_size = [512] eval_args: [{'split': {'LS': 'valid_and_test'}, 'order': 'TO', 'group_by': 'user', 'mode': {'valid': 'uni100', 'test': 'uni100'}}]
Sat 21 Feb 2026 15:43:59 INFO  TimeWeaver(
  (item_embedding): Embedding(10254, 64, padding_idx=0)
  (time_aug): TimeAwareAugmentation(
    (pos_embedding): Embedding(32, 64)
    (time_embedding): Embedding(1000, 64)
    (layer_norm): LayerNorm((64,), eps=1e-05, elementwise_affine=True)
    (drop): Dropout(p=0.5, inplace=False)
  )
  (context_layers): ModuleList(
    (0-1): 2 x TCNNextBlock(
      (dw): DepthwiseConv1d(
        (conv): Conv1d(64, 64, kernel_size=(11,), stride=(1,), padding=(5,), groups=64)
        (bn): BatchNorm1d(64, eps=1e-05, momentum=0.1, affine=True, track_running_stats=True)
        (drop): Dropout(p=0.5, inplace=False)
      )
      (norm1): LayerNorm((64,), eps=1e-05, elementwise_affine=True)
      (conv_inter): ParallelConvInter(
        (conv1): Conv1d(64, 64, kernel_size=(1,), stride=(1,))
        (conv3): Conv1d(64, 64, kernel_size=(3,), stride=(1,), padding=(1,))
        (proj): Conv1d(64, 64, kernel_size=(1,), stride=(1,))
        (drop): Dropout(p=0.5, inplace=False)
      )
      (norm2): LayerNorm((64,), eps=1e-05, elementwise_affine=True)
      (ffn): Sequential(
        (0): Linear(in_features=64, out_features=256, bias=True)
        (1): GELU(approximate='none')
        (2): Dropout(p=0.5, inplace=False)
        (3): Linear(in_features=256, out_features=64, bias=True)
        (4): Dropout(p=0.5, inplace=False)
      )
      (norm3): LayerNorm((64,), eps=1e-05, elementwise_affine=True)
    )
  )
  (dynamic_layers): ModuleList(
    (0-1): 2 x EMAStream(
      (proj): Linear(in_features=64, out_features=64, bias=True)
    )
  )
  (weavers): ModuleList(
    (0-1): 2 x StreamWeaver(
      (proj): Linear(in_features=128, out_features=64, bias=True)
      (norm): LayerNorm((64,), eps=1e-05, elementwise_affine=True)
    )
  )
  (loss_fct): CrossEntropyLoss()
)
Trainable parameters: 857601.0
Sat 21 Feb 2026 15:43:59 INFO  FLOPs: 4298752.0
Sat 21 Feb 2026 15:44:16 INFO  epoch 0 training [time: 15.87s, train loss: 1697.4468]
Sat 21 Feb 2026 15:44:20 INFO  epoch 0 evaluating [time: 3.62s, valid_score: 0.479200]
Sat 21 Feb 2026 15:44:20 INFO  valid result: 
hit@10 : 0.4792    ndcg@10 : 0.2556    mrr@10 : 0.1867
…
Average actions of items: 5.648298059104652
The number of inters: 57912
The sparsity of the dataset: 99.7421119990595%
Remain Fields: ['user_id', 'item_id', 'rating', 'timestamp']
Sat 21 Feb 2026 16:09:08 INFO  [Training]: train_batch_size = [256] train_neg_sample_args: [{'distribution': 'uniform', 'sample_num': 1, 'alpha': 1.0, 'dynamic': False, 'candidate_num': 0}]
Sat 21 Feb 2026 16:09:08 INFO  [Evaluation]: eval_batch_size = [512] eval_args: [{'split': {'LS': 'valid_and_test'}, 'order': 'TO', 'group_by': 'user', 'mode': {'valid': 'uni100', 'test': 'uni100'}}]
Sat 21 Feb 2026 16:09:08 INFO  MLM4Rec(
  (item_embedding): Embedding(10254, 64, padding_idx=0)
  (dropout): Dropout(p=0.5, inplace=False)
  (global_encoder): GlobalEncoder(
    (layers): ModuleList(
      (0-1): 2 x ModuleList(
        (0): SequenceMixer(
          (norm): LayerNorm((64,), eps=1e-05, elementwise_affine=True)
          (fc1): Linear(in_features=32, out_features=32, bias=True)
          (fc2): Linear(in_features=32, out_features=32, bias=True)
          (act): GELU(approximate='none')
          (drop): Dropout(p=0.5, inplace=False)
        )
        (1): ChannelMixer(
          (norm): LayerNorm((64,), eps=1e-05, elementwise_affine=True)
          (fc1): Linear(in_features=64, out_features=64, bias=True)
          (fc2): Linear(in_features=64, out_features=64, bias=True)
          (act): GELU(approximate='none')
          (drop): Dropout(p=0.5, inplace=False)
        )
      )
    )
  )
  (local_encoder): LocalEncoder(
    (layers): ModuleList(
      (0-1): 2 x LocalEncoderBlock(
        (norm): LayerNorm((64,), eps=1e-05, elementwise_affine=True)
        (proj_in): Linear(in_features=64, out_features=128, bias=True)
        (proj_out): Linear(in_features=64, out_features=64, bias=True)
        (act): GELU(approximate='none')
        (drop): Dropout(p=0.5, inplace=False)
        (cle): MultiGranularityCLE(
          (norm): LayerNorm((64,), eps=1e-05, elementwise_affine=True)
          (convs): ModuleList(
            (0): Conv1d(64, 64, kernel_size=(3,), stride=(1,), padding=(1,), groups=64)
            (1): Conv1d(64, 64, kernel_size=(5,), stride=(1,), padding=(2,), groups=64)
            (2): Conv1d(64, 64, kernel_size=(7,), stride=(1,), padding=(3,), groups=64)
            (3): Conv1d(64, 64, kernel_size=(9,), stride=(1,), padding=(4,), groups=64)
          )
          (act): SiLU()
        )
      )
    )
  )
  (afl): AdaptiveFusion(
    (att_fc): Linear(in_features=64, out_features=1, bias=True)
    (wg): Linear(in_features=64, out_features=1, bias=True)
    (wl): Linear(in_features=64, out_features=1, bias=True)
  )
  (pred_fc1): Linear(in_features=64, out_features=64, bias=True)
  (pred_fc2): Linear(in_features=64, out_features=10254, bias=True)
  (pred_act): GELU(approximate='none')
  (loss_fct): BPRLoss()
)
Trainable parameters: 1377553
Sat 21 Feb 2026 16:09:08 INFO  FLOPs: 1710272.0
Sat 21 Feb 2026 16:09:33 INFO  epoch 0 training [time: 24.11s, train loss: 106.7169]
Sat 21 Feb 2026 16:09:36 INFO  epoch 0 evaluating [time: 3.46s, valid_score: 0.161400]
Sat 21 Feb 2026 16:09:36 INFO  valid result: 
…
Average actions of items: 5.648298059104652
The number of inters: 57912
The sparsity of the dataset: 99.7421119990595%
Remain Fields: ['user_id', 'item_id', 'rating', 'timestamp']
Sat 21 Feb 2026 17:19:09 INFO  [Training]: train_batch_size = [256] train_neg_sample_args: [{'distribution': 'none', 'sample_num': 'none', 'alpha': 'none', 'dynamic': False, 'candidate_num': 0}]
Sat 21 Feb 2026 17:19:09 INFO  [Evaluation]: eval_batch_size = [512] eval_args: [{'split': {'LS': 'valid_and_test'}, 'order': 'TO', 'group_by': 'user', 'mode': {'valid': 'uni100', 'test': 'uni100'}}]
Sat 21 Feb 2026 17:19:09 INFO  LRURec(
  (item_embedding): Embedding(10254, 64, padding_idx=0)
  (pos_embedding): Embedding(32, 64)
  (dropout): Dropout(p=0.5, inplace=False)
  (layer_norm): LayerNorm((64,), eps=1e-05, elementwise_affine=True)
  (layers): ModuleList(
    (0-1): 2 x LRUBlock(
      (dropout): Dropout(p=0.5, inplace=False)
      (norm1): LayerNorm((64,), eps=1e-05, elementwise_affine=True)
      (norm2): LayerNorm((64,), eps=1e-05, elementwise_affine=True)
      (ffn): Sequential(
        (0): Linear(in_features=64, out_features=256, bias=True)
        (1): GELU(approximate='none')
        (2): Dropout(p=0.5, inplace=False)
        (3): Linear(in_features=256, out_features=64, bias=True)
        (4): Dropout(p=0.5, inplace=False)
      )
    )
  )
  (loss_fct): CrossEntropyLoss()
)
Trainable parameters: 766464
Sat 21 Feb 2026 17:19:09 INFO  FLOPs: 2121728.0
Sat 21 Feb 2026 17:22:10 INFO  epoch 0 training [time: 180.88s, train loss: 1734.9703]
Sat 21 Feb 2026 17:22:20 INFO  epoch 0 evaluating [time: 9.98s, valid_score: 0.147800]
Sat 21 Feb 2026 17:22:20 INFO  valid result: 
…
