…
The sparsity of the dataset: 93.70575143257098%
Remain Fields: ['user_id', 'item_id', 'rating', 'timestamp', 'age', 'gender', 'occupation', 'zip_code', 'movie_title', 'release_year', 'class']
Fri 30 Jan 2026 19:57:22 INFO  [Training]: train_batch_size = [256] train_neg_sample_args: [{'distribution': 'none', 'sample_num': 'none', 'alpha': 'none', 'dynamic': False, 'candidate_num': 0}]
Fri 30 Jan 2026 19:57:22 INFO  [Evaluation]: eval_batch_size = [512] eval_args: [{'split': {'LS': 'valid_and_test'}, 'order': 'TO', 'group_by': 'user', 'mode': {'valid': 'uni100', 'test': 'uni100'}}]
Fri 30 Jan 2026 19:57:23 INFO  TimeWeaver(
  (item_embedding): Embedding(1683, 128, padding_idx=0)
  (time_aug): TimeAwareAugmentation(
    (pos_embedding): Embedding(32, 128)
    (time_embedding): Embedding(1000, 128)
    (layer_norm): LayerNorm((128,), eps=1e-05, elementwise_affine=True)
    (drop): Dropout(p=0.5, inplace=False)
  )
  (context_layers): ModuleList(
    (0-1): 2 x TCNNextBlock(
      (dw): DepthwiseConv1d(
        (conv): Conv1d(128, 128, kernel_size=(11,), stride=(1,), padding=(5,), groups=128)
        (bn): BatchNorm1d(128, eps=1e-05, momentum=0.1, affine=True, track_running_stats=True)
        (drop): Dropout(p=0.5, inplace=False)
      )
      (norm1): LayerNorm((128,), eps=1e-05, elementwise_affine=True)
      (conv_inter): ParallelConvInter(
        (conv1): Conv1d(128, 128, kernel_size=(1,), stride=(1,))
        (conv3): Conv1d(128, 128, kernel_size=(3,), stride=(1,), padding=(1,))
        (proj): Conv1d(128, 128, kernel_size=(1,), stride=(1,))
        (drop): Dropout(p=0.5, inplace=False)
      )
      (norm2): LayerNorm((128,), eps=1e-05, elementwise_affine=True)
      (ffn): Sequential(
        (0): Linear(in_features=128, out_features=256, bias=True)
        (1): GELU(approximate='none')
        (2): Dropout(p=0.5, inplace=False)
        (3): Linear(in_features=256, out_features=128, bias=True)
        (4): Dropout(p=0.5, inplace=False)
      )
      (norm3): LayerNorm((128,), eps=1e-05, elementwise_affine=True)
    )
  )
  (dynamic_layers): ModuleList(
    (0-1): 2 x EMAStream(
      (proj): Linear(in_features=128, out_features=128, bias=True)
    )
  )
  (weavers): ModuleList(
    (0-1): 2 x StreamWeaver(
      (proj): Linear(in_features=256, out_features=128, bias=True)
      (norm): LayerNorm((128,), eps=1e-05, elementwise_affine=True)
    )
  )
  (loss_fct): CrossEntropyLoss()
)
Trainable parameters: 748673.0
Fri 30 Jan 2026 19:57:23 INFO  FLOPs: 12791808.0
Fri 30 Jan 2026 19:57:55 INFO  epoch 0 training [time: 31.39s, train loss: 2391.2229]
Fri 30 Jan 2026 19:57:58 INFO  epoch 0 evaluating [time: 2.44s, valid_score: 0.285900]
Fri 30 Jan 2026 19:57:58 INFO  valid result: 
hit@10 : 0.6744    ndcg@10 : 0.3774    mrr@10 : 0.2859
…
