…
Average actions of items: 9.075400486454752
The number of inters: 108206
The sparsity of the dataset: 99.87038081155896%
Remain Fields: ['user_id', 'item_id', 'rating', 'timestamp']
Sat 07 Feb 2026 13:01:55 INFO  [Training]: train_batch_size = [256] train_neg_sample_args: [{'distribution': 'uniform', 'sample_num': 1, 'alpha': 1.0, 'dynamic': False, 'candidate_num': 0}]
Sat 07 Feb 2026 13:01:55 INFO  [Evaluation]: eval_batch_size = [512] eval_args: [{'split': {'LS': 'valid_and_test'}, 'order': 'TO', 'group_by': 'user', 'mode': {'valid': 'uni100', 'test': 'uni100'}}]
Sat 07 Feb 2026 13:01:55 INFO  TiSASRec(
  (item_embedding): Embedding(11924, 64, padding_idx=0)
  (time_matrix_K_emb): Embedding(513, 64)
  (time_matrix_V_emb): Embedding(513, 64)
  (position_key_embedding): Embedding(32, 64)
  (position_value_embedding): Embedding(32, 64)
  (trm_encoder): TransformerEncoder(
    (layer): ModuleList(
      (0-1): 2 x TransformerLayer(
        (multi_head_attention): MultiHeadAttention(
          (query): Linear(in_features=64, out_features=64, bias=True)
          (key): Linear(in_features=64, out_features=64, bias=True)
          (value): Linear(in_features=64, out_features=64, bias=True)
          (softmax): Softmax(dim=-1)
          (attn_dropout): Dropout(p=0.2, inplace=False)
          (dense): Linear(in_features=64, out_features=64, bias=True)
          (layer_norm): LayerNorm((64,), eps=1e-12, elementwise_affine=True)
          (out_dropout): Dropout(p=0.2, inplace=False)
        )
        (feed_forward): FeedForward(
          (dense_1): Linear(in_features=64, out_features=256, bias=True)
          (dense_2): Linear(in_features=256, out_features=64, bias=True)
          (layer_norm): LayerNorm((64,), eps=1e-12, elementwise_affine=True)
          (dropout): Dropout(p=0.2, inplace=False)
        )
      )
    )
  )
  (layer_norm): LayerNorm((64,), eps=1e-12, elementwise_affine=True)
  (dropout): Dropout(p=0.2, inplace=False)
)
Trainable parameters: 932992
Sat 07 Feb 2026 13:01:56 INFO  FLOPs: 3327808.0
Sat 07 Feb 2026 13:03:31 INFO  epoch 0 training [time: 93.56s, train loss: 424.7497]
Sat 07 Feb 2026 13:04:10 INFO  epoch 0 evaluating [time: 39.39s, valid_score: 0.185100]
Sat 07 Feb 2026 13:04:10 INFO  valid result: 
hit@10 : 0.4023    ndcg@10 : 0.2359    mrr@10 : 0.1851
…
Average actions of items: 2.9721861808080994
The number of inters: 162641
The sparsity of the dataset: 99.80198988231011%
Remain Fields: ['user_id', 'item_id', 'rating', 'timestamp']
Sat 07 Feb 2026 15:54:41 INFO  [Training]: train_batch_size = [256] train_neg_sample_args: [{'distribution': 'uniform', 'sample_num': 1, 'alpha': 1.0, 'dynamic': False, 'candidate_num': 0}]
Sat 07 Feb 2026 15:54:41 INFO  [Evaluation]: eval_batch_size = [512] eval_args: [{'split': {'LS': 'valid_and_test'}, 'order': 'TO', 'group_by': 'user', 'mode': {'valid': 'uni100', 'test': 'uni100'}}]
Sat 07 Feb 2026 15:54:41 INFO  TiSASRec(
  (item_embedding): Embedding(54722, 64, padding_idx=0)
  (time_matrix_K_emb): Embedding(513, 64)
  (time_matrix_V_emb): Embedding(513, 64)
  (position_key_embedding): Embedding(32, 64)
  (position_value_embedding): Embedding(32, 64)
  (trm_encoder): TransformerEncoder(
    (layer): ModuleList(
      (0-1): 2 x TransformerLayer(
        (multi_head_attention): MultiHeadAttention(
          (query): Linear(in_features=64, out_features=64, bias=True)
          (key): Linear(in_features=64, out_features=64, bias=True)
          (value): Linear(in_features=64, out_features=64, bias=True)
          (softmax): Softmax(dim=-1)
          (attn_dropout): Dropout(p=0.2, inplace=False)
          (dense): Linear(in_features=64, out_features=64, bias=True)
          (layer_norm): LayerNorm((64,), eps=1e-12, elementwise_affine=True)
          (out_dropout): Dropout(p=0.2, inplace=False)
        )
        (feed_forward): FeedForward(
          (dense_1): Linear(in_features=64, out_features=256, bias=True)
          (dense_2): Linear(in_features=256, out_features=64, bias=True)
          (layer_norm): LayerNorm((64,), eps=1e-12, elementwise_affine=True)
          (dropout): Dropout(p=0.2, inplace=False)
        )
      )
    )
  )
  (layer_norm): LayerNorm((64,), eps=1e-12, elementwise_affine=True)
  (dropout): Dropout(p=0.2, inplace=False)
)
Trainable parameters: 3672064
Sat 07 Feb 2026 15:54:41 INFO  FLOPs: 3327808.0
Sat 07 Feb 2026 15:56:24 INFO  epoch 0 training [time: 103.21s, train loss: 811.5350]
Sat 07 Feb 2026 15:56:30 INFO  epoch 0 evaluating [time: 5.78s, valid_score: 0.139000]
Sat 07 Feb 2026 15:56:30 INFO  valid result: 
hit@10 : 0.3067    ndcg@10 : 0.1781    mrr@10 : 0.139
…
