…
The sparsity of the dataset: 93.70575143257098%
Remain Fields: ['user_id', 'item_id', 'rating', 'timestamp', 'age', 'gender', 'occupation', 'zip_code', 'movie_title', 'release_year', 'class']
Sat 07 Feb 2026 09:28:05 INFO  [Training]: train_batch_size = [256] train_neg_sample_args: [{'distribution': 'uniform', 'sample_num': 1, 'alpha': 1.0, 'dynamic': False, 'candidate_num': 0}]
Sat 07 Feb 2026 09:28:05 INFO  [Evaluation]: eval_batch_size = [512] eval_args: [{'split': {'LS': 'valid_and_test'}, 'order': 'TO', 'group_by': 'user', 'mode': {'valid': 'uni100', 'test': 'uni100'}}]
Sat 07 Feb 2026 09:28:06 INFO  TiSASRec(
  (item_embedding): Embedding(1683, 64, padding_idx=0)
  (time_matrix_K_emb): Embedding(2049, 64)
  (time_matrix_V_emb): Embedding(2049, 64)
  (position_key_embedding): Embedding(32, 64)
  (position_value_embedding): Embedding(32, 64)
  (trm_encoder): TransformerEncoder(
    (layer): ModuleList(
      (0-1): 2 x TransformerLayer(
        (multi_head_attention): MultiHeadAttention(
          (query): Linear(in_features=64, out_features=64, bias=True)
          (key): Linear(in_features=64, out_features=64, bias=True)
          (value): Linear(in_features=64, out_features=64, bias=True)
          (softmax): Softmax(dim=-1)
          (attn_dropout): Dropout(p=0.2, inplace=False)
          (dense): Linear(in_features=64, out_features=64, bias=True)
          (layer_norm): LayerNorm((64,), eps=1e-12, elementwise_affine=True)
          (out_dropout): Dropout(p=0.2, inplace=False)
        )
        (feed_forward): FeedForward(
          (dense_1): Linear(in_features=64, out_features=256, bias=True)
          (dense_2): Linear(in_features=256, out_features=64, bias=True)
          (layer_norm): LayerNorm((64,), eps=1e-12, elementwise_affine=True)
          (dropout): Dropout(p=0.2, inplace=False)
        )
      )
    )
  )
  (layer_norm): LayerNorm((64,), eps=1e-12, elementwise_affine=True)
  (dropout): Dropout(p=0.2, inplace=False)
)
Trainable parameters: 474176
Sat 07 Feb 2026 09:28:06 INFO  FLOPs: 3327808.0
Sat 07 Feb 2026 09:29:13 INFO  epoch 0 training [time: 64.98s, train loss: 395.9192]
Sat 07 Feb 2026 09:29:17 INFO  epoch 0 evaluating [time: 4.02s, valid_score: 0.244800]
Sat 07 Feb 2026 09:29:17 INFO  valid result: 
hit@10 : 0.6066    ndcg@10 : 0.3295    mrr@10 : 0.2448
…
