…
Average actions of items: 83.06388415672913
The number of inters: 97517
The sparsity of the dataset: 91.19902529275062%
Remain Fields: ['user_id', 'item_id', 'rating', 'timestamp', 'behavior_type']
Mon 26 Jan 2026 20:16:48 INFO  [Training]: train_batch_size = [256] train_neg_sample_args: [{'distribution': 'uniform', 'sample_num': 1, 'alpha': 1.0, 'dynamic': False, 'candidate_num': 0}]
Mon 26 Jan 2026 20:16:48 INFO  [Evaluation]: eval_batch_size = [512] eval_args: [{'split': {'LS': 'valid_and_test'}, 'order': 'TO', 'group_by': 'user', 'mode': {'valid': 'uni100', 'test': 'uni100'}}]
Mon 26 Jan 2026 20:16:48 INFO  BMLP(
  (item_embedding): Embedding(1175, 64, padding_idx=0)
  (behavior_embedding): Embedding(3, 64, padding_idx=0)
  (trans_embedding): Embedding(9, 64)
  (hip_blocks): ModuleList(
    (0-1): 2 x BMLPBlock(
      (norm1): LayerNorm()
      (norm2): LayerNorm()
      (scb): SCB(
        (fc1): Linear(in_features=30, out_features=64, bias=True)
        (fc2): Linear(in_features=64, out_features=30, bias=True)
        (act): GELU(approximate='none')
      )
      (fcb): FCB(
        (head_fc1): ModuleList(
          (0-1): 2 x Linear(in_features=64, out_features=64, bias=True)
        )
        (head_fc2): ModuleList(
          (0-1): 2 x Linear(in_features=64, out_features=64, bias=True)
        )
        (out): Linear(in_features=128, out_features=128, bias=True)
      )
      (dropout): Dropout(p=0.2, inplace=False)
    )
  )
  (pip_blocks): ModuleList(
    (0-1): 2 x BMLPBlock(
      (norm1): LayerNorm()
      (norm2): LayerNorm()
      (scb): SCB(
        (fc1): Linear(in_features=10, out_features=64, bias=True)
        (fc2): Linear(in_features=64, out_features=10, bias=True)
        (act): GELU(approximate='none')
      )
      (fcb): FCB(
        (head_fc1): ModuleList(
          (0-1): 2 x Linear(in_features=64, out_features=64, bias=True)
        )
        (head_fc2): ModuleList(
          (0-1): 2 x Linear(in_features=64, out_features=64, bias=True)
        )
        (out): Linear(in_features=128, out_features=128, bias=True)
      )
      (dropout): Dropout(p=0.2, inplace=False)
    )
  )
  (attn_fc1): Linear(in_features=128, out_features=128, bias=True)
  (attn_fc2): Linear(in_features=128, out_features=1, bias=True)
  (fuse_gate_g): Linear(in_features=128, out_features=128, bias=True)
  (fuse_gate_l): Linear(in_features=128, out_features=128, bias=True)
  (output_proj): Linear(in_features=128, out_features=64, bias=True)
  (layer_norm): LayerNorm()
  (loss_fct): BPRLoss()
)
Trainable parameters: 279249
Mon 26 Jan 2026 20:16:49 INFO  FLOPs: 3491264.0
Mon 26 Jan 2026 20:19:25 INFO  epoch 0 training [time: 154.50s, train loss: 184.0138]
Mon 26 Jan 2026 20:20:43 INFO  epoch 0 evaluating [time: 77.82s, valid_score: 0.163700]
Mon 26 Jan 2026 20:20:43 INFO  valid result: 
hit@10 : 0.4597    ndcg@10 : 0.2322    mrr@10 : 0.1637
Mon 26 Jan 2026 20:20:43 INFO  Saving current: saved\BMLP-Jan-26-2026_20-16-49.pth
…
