…
The sparsity of the dataset: 93.70575143257098%
Remain Fields: ['user_id', 'item_id', 'rating', 'timestamp', 'age', 'gender', 'occupation', 'zip_code', 'movie_title', 'release_year', 'class']
Mon 26 Jan 2026 18:29:54 INFO  [Training]: train_batch_size = [256] train_neg_sample_args: [{'distribution': 'uniform', 'sample_num': 1, 'alpha': 1.0, 'dynamic': False, 'candidate_num': 0}]
Mon 26 Jan 2026 18:29:54 INFO  [Evaluation]: eval_batch_size = [512] eval_args: [{'split': {'LS': 'valid_and_test'}, 'order': 'TO', 'group_by': 'user', 'mode': {'valid': 'uni100', 'test': 'uni100'}}]
Mon 26 Jan 2026 18:29:55 INFO  MLM4Rec(
  (item_embedding): Embedding(1683, 64, padding_idx=0)
  (item_embeddings): Embedding(1683, 64, padding_idx=0)
  (position_embedding): Embedding(30, 64)
  (layer_norm): LayerNorm()
  (dropout): Dropout(p=0.5, inplace=False)
  (item_encoder): Encoder(
    (layer): ModuleList(
      (0-1): 2 x Layer(
        (attenpool): AttentionPooling(
          (att_fc1): Linear(in_features=64, out_features=64, bias=True)
          (att_fc2): Linear(in_features=64, out_features=1, bias=True)
        )
        (attention): MLPMixer(
          (layer_norm): LayerNorm((64,), eps=1e-05, elementwise_affine=True)
          (token_mixer): PreNormResidual(
            (fn): Sequential(
              (0): Conv1d(30, 120, kernel_size=(1,), stride=(1,))
              (1): GELU(approximate='none')
              (2): Dropout(p=0.5, inplace=False)
              (3): Conv1d(120, 30, kernel_size=(1,), stride=(1,))
              (4): Dropout(p=0.5, inplace=False)
            )
            (norm): LayerNorm((64,), eps=1e-05, elementwise_affine=True)
          )
          (channel_mixer): PreNormResidual(
            (fn): Sequential(
              (0): Linear(in_features=64, out_features=256, bias=True)
              (1): GELU(approximate='none')
              (2): Dropout(p=0.5, inplace=False)
              (3): Linear(in_features=256, out_features=64, bias=True)
              (4): Dropout(p=0.5, inplace=False)
            )
            (norm): LayerNorm((64,), eps=1e-05, elementwise_affine=True)
          )
        )
        (filterlayer): CMLPEncoder(
          (layers): CMLPBlock(
            (proj_in): Linear(in_features=64, out_features=256, bias=True)
            (proj_out): Linear(in_features=128, out_features=64, bias=True)
            (act_in): GELU(approximate='none')
            (act_out): Identity()
            (pre_norm): LayerNorm((64,), eps=1e-05, elementwise_affine=True)
            (dropout): Dropout(p=0.5, inplace=False)
            (cgu): ConvGatingUnit(
              (norm): LayerNorm((128,), eps=1e-05, elementwise_affine=True)
              (dropout): Dropout(p=0.5, inplace=False)
              (conv1): Conv1d(128, 128, kernel_size=(3,), stride=(1,), padding=(1,), groups=128)
              (conv2): Conv1d(128, 128, kernel_size=(5,), stride=(1,), padding=(2,), groups=128)
              (act): GELU(approximate='none')
              (conv_act): SiLU()
            )
          )
          (norm): LayerNorm((64,), eps=1e-05, elementwise_affine=True)
        )
        (w_att): Linear(in_features=64, out_features=1, bias=True)
        (w_mlp): Linear(in_features=64, out_features=1, bias=True)
        (w_merge): Linear(in_features=128, out_features=64, bias=True)
        (intermediate): Intermediate(
          (dense_1): Linear(in_features=64, out_features=256, bias=True)
          (dense_2): Linear(in_features=256, out_features=64, bias=True)
          (layer_norm): LayerNorm()
          (dropout): Dropout(p=0.5, inplace=False)
        )
      )
    )
  )
  (loss_fct): BPRLoss()
)
Trainable parameters: 336434
Mon 26 Jan 2026 18:29:55 INFO  FLOPs: 9857600.0
Mon 26 Jan 2026 18:31:28 INFO  epoch 0 training [time: 91.47s, train loss: 160.4528]
Mon 26 Jan 2026 18:31:33 INFO  epoch 0 evaluating [time: 4.28s, valid_score: 0.211600]
Mon 26 Jan 2026 18:31:33 INFO  valid result: 
…
