…
The sparsity of the dataset: 93.70575143257098%
Remain Fields: ['user_id', 'item_id', 'rating', 'timestamp', 'age', 'gender', 'occupation', 'zip_code', 'movie_title', 'release_year', 'class']
Fri 30 Jan 2026 13:12:59 INFO  [Training]: train_batch_size = [256] train_neg_sample_args: [{'distribution': 'uniform', 'sample_num': 1, 'alpha': 1.0, 'dynamic': False, 'candidate_num': 0}]
Fri 30 Jan 2026 13:12:59 INFO  [Evaluation]: eval_batch_size = [512] eval_args: [{'split': {'LS': 'valid_and_test'}, 'order': 'TO', 'group_by': 'user', 'mode': {'valid': 'uni100', 'test': 'uni100'}}]
Fri 30 Jan 2026 13:13:00 INFO  MLM4Rec(
  (item_embedding): Embedding(1683, 64, padding_idx=0)
  (dropout): Dropout(p=0.5, inplace=False)
  (global_encoder): GlobalEncoder(
    (layers): ModuleList(
      (0-1): 2 x ModuleList(
        (0): SequenceMixer(
          (norm): LayerNorm((64,), eps=1e-05, elementwise_affine=True)
          (fc1): Linear(in_features=32, out_features=32, bias=True)
          (fc2): Linear(in_features=32, out_features=32, bias=True)
          (act): GELU(approximate='none')
          (drop): Dropout(p=0.5, inplace=False)
        )
        (1): ChannelMixer(
          (norm): LayerNorm((64,), eps=1e-05, elementwise_affine=True)
          (fc1): Linear(in_features=64, out_features=64, bias=True)
          (fc2): Linear(in_features=64, out_features=64, bias=True)
          (act): GELU(approximate='none')
          (drop): Dropout(p=0.5, inplace=False)
        )
      )
    )
  )
  (local_encoder): LocalEncoder(
    (layers): ModuleList(
      (0-1): 2 x LocalEncoderBlock(
        (norm): LayerNorm((64,), eps=1e-05, elementwise_affine=True)
        (proj_in): Linear(in_features=64, out_features=128, bias=True)
        (proj_out): Linear(in_features=64, out_features=64, bias=True)
        (act): GELU(approximate='none')
        (drop): Dropout(p=0.5, inplace=False)
        (cle): MultiGranularityCLE(
          (norm): LayerNorm((64,), eps=1e-05, elementwise_affine=True)
          (convs): ModuleList(
            (0): Conv1d(64, 64, kernel_size=(3,), stride=(1,), padding=(1,), groups=64)
            (1): Conv1d(64, 64, kernel_size=(5,), stride=(1,), padding=(2,), groups=64)
            (2): Conv1d(64, 64, kernel_size=(7,), stride=(1,), padding=(3,), groups=64)
            (3): Conv1d(64, 64, kernel_size=(9,), stride=(1,), padding=(4,), groups=64)
          )
          (act): SiLU()
        )
      )
    )
  )
  (afl): AdaptiveFusion(
    (att_fc): Linear(in_features=64, out_features=1, bias=True)
    (wg): Linear(in_features=64, out_features=1, bias=True)
    (wl): Linear(in_features=64, out_features=1, bias=True)
  )
  (pred_fc1): Linear(in_features=64, out_features=64, bias=True)
  (pred_fc2): Linear(in_features=64, out_features=1683, bias=True)
  (pred_act): GELU(approximate='none')
  (loss_fct): BPRLoss()
)
Trainable parameters: 271894
Fri 30 Jan 2026 13:13:00 INFO  FLOPs: 1710272.0
Fri 30 Jan 2026 13:14:16 INFO  epoch 0 training [time: 74.29s, train loss: 154.0463]
Fri 30 Jan 2026 13:14:17 INFO  epoch 0 evaluating [time: 1.94s, valid_score: 0.236600]
Fri 30 Jan 2026 13:14:17 INFO  valid result: 
…
